checkpoint/model.pth (torch, 38279 bytes, 6 tensors)

input_layer.weight f4 [128, 4]
000000 c0 cb 05 bc 18 55 6b be e8 fa 8c bd b0 ce c0 bd
       -0.008166254 -0.2298168 -0.06883794 -0.094144225
000010 14 55 d5 3d 97 82 bc 3e 1d 43 d1 3d f7 65 1c 3e
       0.10416618 0.36818382 0.10217879 0.15273272
000020 39 c8 6f 3e dc 50 32 be e1 94 cf 3e 8b 6d 0a bf
       0.23416223 -0.17413658 0.40543273 -0.540734
000030 bc 89 6f be 40 91 ac bd 8a aa a0 3e 5c 61 e7 be
       -0.23392385 -0.08426142 0.3138011 -0.45191467
000040 93 7b a2 3e 65 8b d6 be 5e 0e e1 3e e8 b7 41 be
       0.31734905 -0.41903225 0.43956274 -0.18917811
000050 74 a1 b3 bd 7f f1 94 bd dd eb 04 3f f9 49 16 3f
       -0.08771029 -0.07272624 0.519224 0.58706623
000060 44 1f ce be b8 bb 7e be 20 1f 6a bd 2a 3a e3 3e
       -0.4025823 -0.24876297 -0.05715859 0.44380313
000070 fe 2e c4 3e 10 82 9b 3e 40 6a 13 be 52 93 63 3e
       0.38317102 0.30372667 -0.14396 0.22224167
000080 49 fa a8 3e 1a 6f bf 3e 4f 6b 44 3d ca f5 11 bf
       0.33003452 0.3738945 0.0479539 -0.5701567
000090 db 29 29 be 6b b5 e8 bd 49 8a 14 3f b4 b3 01 3e
       -0.16519873 -0.11362728 0.58023506 0.12666208
0000a0 5c 78 b8 be 9c 25 89 3e d4 97 2f be 6c 29 40 be
       -0.36029327 0.26786506 -0.17147762 -0.18765801
0000b0 42 ac 05 3f 67 57 de be 0d fc 82 be b4 4c ce 3e
       0.5221597 -0.43426058 -0.25582924 0.40292895
0000c0 b2 4f eb be d8 80 b4 bd f2 5c ea 3e a0 96 76 3d
       -0.4595924 -0.088136375 0.45774037 0.06020224
0000d0 a0 65 eb be 50 8a d4 be 54 c1 49 be 80 d0 f6 3c
       -0.4597597 -0.41511774 -0.19702655 0.030128717
0000e0 64 20 ac 3d 68 ec f3 3e 61 23 b0 3d 15 13 26 be
       0.084046155 0.476413 0.08600498 -0.16218217
0000f0 30 65 0b bd 0c 5d e9 be 98 c8 c1 3d 40 4b bf be
       -0.034032047 -0.45578802 0.09462088 -0.373621
000100 18 74 a8 be 4a f9 c2 be 96 59 fb 3e e2 57 ee be
       -0.32901073 -0.38080817 0.49091786 -0.46551424
000110 33 5f e2 3e 40 e8 d3 3e 49 f5 90 3e f1 d9 e7 3e
       0.44213256 0.4138813 0.28312138 0.45283464
000120 60 07 af bd 96 e6 87 3e a2 37 d6 be d0 2b f5 3d
       -0.085463285 0.2654311 -0.4183932 0.11971247
000130 a4 10 23 be a4 8d 02 be a4 18 42 be 20 6e 56 bd
       -0.15924317 -0.12749344 -0.18954712 -0.052351117
000140 38 aa a9 be 34 ce e0 be a8 a9 ab bd 38 85 af be
       -0.3313768 -0.4390732 -0.08381969 -0.34281325
000150 05 1e fd 3e 79 9e c0 3e 4d 1f b5 3e 0f c9 10 bf
       0.49436966 0.37620905 0.35375443 -0.5655679
000160 2f 2b b6 bd dc 51 ea 3e bb 20 37 3e 35 c2 90 be
       -0.08894955 0.4576558 0.1788358 -0.28273168
000170 a3 e5 40 3e fd 70 cc 3e 1f 9a 02 bf 6e 93 82 3e
       0.188376 0.39929953 -0.5101642 0.25503105
000180 d7 55 ac 3e 97 b8 d4 be a0 cf dd 3e ab 95 6c be
       0.3365924 -0.4154708 0.43322468 -0.23103969
000190 8d a7 05 be dd ae 85 3d c8 16 f6 3e 54 8f b3 be
       -0.13052197 0.06527493 0.48064256 -0.35070288
0001a0 75 c1 f7 3e d6 06 0e 3f b1 43 01 be 7b 0e 9c be
       0.48389784 0.5547918 -0.12623478 -0.30479798
0001b0 9a 8b af be 48 12 bc bd 54 9f 58 be 4a af a5 be
       -0.34286195 -0.09183174 -0.21154529 -0.32360297
0001c0 92 9f 82 be 20 65 ab 3c 68 4e f6 3d 48 bd 3a 3e
       -0.25512367 0.020922244 0.120266736 0.18236268
0001d0 80 9f 63 be 05 54 fd 3e c0 b2 08 3a 6a b1 63 be
       -0.22228813 0.49478164 0.0005214624 -0.22235647
0001e0 b0 4b c0 3e 61 d7 9f bd b9 94 0e 3f 4c 89 9b bb
       0.37557745 -0.07804752 0.5569568 -0.0047465917
0001f0 bc ed e0 3e cd cd 04 3f 45 ad 03 3f 66 a0 de 3e
       0.43931377 0.5187653 0.51436263 0.4348175
000200 74 89 a7 3c 16 41 9b bd 6f 13 00 3f ea cb 0e be
       0.020451285 -0.075807735 0.50029653 -0.13944975
000210 64 a0 9a 3e 77 1b 9a be 8c cf 87 3d b7 40 1e bf
       0.30200493 -0.3009908 0.06631383 -0.61817497
000220 8f 14 86 3e 84 3f 07 3e 02 12 f7 3c 32 14 15 be
       0.2618756 0.13207823 0.030159954 -0.14558485
000230 76 81 52 bc 9b fe 39 3e 11 60 f9 3e 28 b1 03 3f
       -0.012848249 0.1816353 0.48706105 0.51442194
000240 67 4d a5 3c c3 d1 3c 3e a9 48 66 be 89 9a 10 3e
       0.02017851 0.18439393 -0.22488655 0.1412145
000250 0e 8d 84 3e b7 dc 0b 3d 45 bb e3 3c e3 df b9 be
       0.25888866 0.034146037 0.027799258 -0.36303625
000260 54 13 46 be 2e 16 8b be e0 f4 00 bd 60 d1 46 3d
       -0.1934331 -0.2716536 -0.03148353 0.04853952
000270 22 df b7 be 04 44 49 3e a0 20 be 3c 20 e0 6e be
       -0.35912424 0.19654852 0.023208916 -0.23327684
000280 f2 81 f0 3e ac 63 1f bd dd ef d6 be 95 dd 62 bd
       0.4697414 -0.038913414 -0.41979876 -0.0553871
000290 44 e7 06 3e 47 23 ab 3e f2 62 88 bd 66 ee 1d bd
       0.13174158 0.33425352 -0.06659497 -0.038557433
0002a0 3a 61 10 3e 78 b4 fa 3e 2a 15 2b bd ff 8b ae be
       0.14099589 0.48965812 -0.04176823 -0.34091184
0002b0 64 af a1 be d8 59 88 3d c0 5a af bd e0 77 f2 3d
       -0.31579125 0.06657761 -0.08562231 0.118392706
0002c0 63 94 10 3d 6c 14 47 3e 3b a4 33 bd 02 fe fc be
       0.035297763 0.19441384 -0.043857794 -0.49412543
0002d0 d6 dd b6 be 04 68 db 3e 0a b6 95 be 46 18 f5 3e
       -0.35716122 0.42852795 -0.29240447 0.47870082
0002e0 54 ac c9 3e 8e 19 09 3d 50 4f c6 be af 33 6c be
       0.39389288 0.033471636 -0.38732386 -0.2306659
0002f0 ea a9 01 3e bc 18 6a be d7 0c 68 3e ba 85 de 3d
       0.12662473 -0.22860998 0.22661148 0.1086535
000300 ac 59 43 3e 5c 3d e0 be f0 66 e1 3e 85 90 98 3e
       0.19077176 -0.43796813 0.44023848 0.2979776
000310 f6 c1 b0 3e d1 7f 95 3d 6a 45 b9 be 4b 8d b9 be
       0.3452298 0.0729977 -0.3618577 -0.3624061
000320 c9 4c 34 3e 80 b2 f2 3e f1 69 d0 be ed 19 d5 bb
       0.17607416 0.4740181 -0.40705827 -0.0065033347
000330 57 c9 bd 3e 91 b4 ad bd bd bb 25 be a2 21 41 bd
       0.37067673 -0.08481706 -0.16184898 -0.047151215
000340 7a b7 91 be ce 39 d7 be 88 23 39 be c0 da 63 3d
       -0.28460294 -0.4203629 -0.1807996 0.055628538
000350 87 88 9e 3d 52 04 77 3e d8 7f 0a 3e fa 59 a7 3e
       0.07740884 0.24122742 0.13525331 0.32685834
000360 58 2f 33 3e bc f9 27 be 78 56 86 be c8 4a 92 bd
       0.17498529 -0.1640386 -0.26237845 -0.0714317
000370 e5 45 23 be d4 69 f9 bd 51 fa 0d 3f de eb 34 be
       -0.15944631 -0.12178388 0.5546008 -0.17668101
000380 a8 2f fa bd c0 1b 4b 3c 40 b5 9a 3c 50 9e 50 be
       -0.12216121 0.012396753 0.018885255 -0.20372891
000390 cb 4a 00 be 4d 0f c6 3e 24 55 43 bd c9 f8 6b be
       -0.12528531 0.3868355 -0.04768862 -0.23044123
0003a0 c6 dd a2 be 98 8b a2 3e 24 72 f7 be f0 ab 05 be
       -0.31809825 0.31747127 -0.4832927 -0.1305387
0003b0 60 aa 5b 3e b9 ec cd be 7b 12 e0 3d 5d e1 a9 3e
       0.21451712 -0.40219668 0.10941025 0.3317975
0003c0 9e 9e 81 3e f0 2e e8 be 7f 4c 4a 3e cb e5 d4 3e
       0.25316328 -0.4534831 0.19755743 0.41581568
0003d0 14 57 cd 3e 08 a8 d9 bd b9 c8 59 3d 99 f6 02 3f
       0.40105498 -0.106277525 0.05316994 0.5115753
0003e0 ba 89 5f bd c7 58 c1 3e 9f 96 1e 3b 1c e3 ed be
       -0.054574706 0.37763044 0.0024198664 -0.46462333
0003f0 7e 7f 9a be 5c 74 e7 be de 16 89 be bc b8 49 be
       -0.30175394 -0.45205963 -0.2677526 -0.19699377

input_layer.bias f4 [128]
000000 3e a6 af 3e 5d a6 ab be 17 47 a8 3e 30 89 84 bd
       0.3430652 -0.33525363 0.32866737 -0.06471479
000010 ce 08 59 3e b6 7d 2b 3e 40 c7 f6 be b5 3d 0a 3f
       0.21194765 0.16747174 -0.4819889 0.5400041
000020 5a 63 8c 3e 1a 69 9f 3e 36 d3 8d be fa d4 46 bf
       0.2741955 0.31134874 -0.27700204 -0.77668726
000030 48 90 b0 bd 40 84 27 bd 8b 76 9f 3d ec 6a 9a be
       -0.086212695 -0.040897608 0.07786282 -0.301597
000040 04 9b 63 3e 83 d5 a0 3d 38 b2 45 be 8c e9 40 3e
       0.22227103 0.07853224 -0.19306266 0.18839091
000050 98 f8 f3 3d 7f 61 85 3e af 67 2f bf 29 e2 a4 3e
       0.1191265 0.26050946 -0.68517584 0.32203797
000060 05 b0 3d 3f a7 8c a7 bd 3d 1b d0 3e 00 95 7b 3e
       0.7409671 -0.08181124 0.4064578 0.24568558
000070 b0 72 1b 3e 8b db c9 3e 9b d4 ae be c9 37 1a bf
       0.15180469 0.3942531 -0.3414658 -0.6024137
000080 7f 01 1e bf 0d 1a ae 3e 27 f6 b1 3e 9a 10 2d bd
       -0.6172103 0.3400425 0.34758112 -0.04225216
000090 59 3b 02 3f ff e8 ad 3d f2 7c be be 04 a6 04 be
       0.5087181 0.08491706 -0.372047 -0.12953955
0000a0 cb 43 53 3d 59 0a e9 3d 99 50 dd 3c ac 2f 53 be
       0.051578324 0.11378927 0.027015971 -0.20623654
0000b0 d0 05 1d 3f 68 96 ed bd 98 d9 07 3e a6 f7 70 be
       0.61336994 -0.11600953 0.13266599 -0.2353197
0000c0 bf 34 41 3e 3b d4 22 3f 87 4c 14 3b 28 4c 15 3f
       0.18867777 0.6360509 0.0022628622 0.5831933
0000d0 38 db 34 3e 80 28 8c be ae 8a a4 be 43 0b bd 3e
       0.1766175 -0.2737465 -0.32137054 0.36922655
0000e0 32 6a b8 3e 0a 38 ac 3e ce 7c d0 be 0e 4b c4 3a
       0.3601852 0.33636504 -0.40720218 0.0014975981
0000f0 fe df 0a be e9 6b 2c bc c9 d1 b2 3e c4 de b9 3e
       -0.13562009 -0.010523775 0.34925678 0.3630277
000100 78 ad 99 3d 2a 41 18 3f 68 72 a5 3e 28 53 b3 3c
       0.0750379 0.5947443 0.32313848 0.021890238
000110 4c 6b ce be df 3e 27 3f 46 11 8b 3e 8a 2b ec be
       -0.40316236 0.6533031 0.27161616 -0.46126968
000120 ea 3c 06 be 4a 10 9e 3e 03 e2 19 bf f6 62 57 3d
       -0.13109174 0.30871803 -0.6011049 0.05258461
000130 a7 e9 7e 3e 96 01 79 be 9e a0 c2 be 44 32 75 3e
       0.24893819 -0.24317011 -0.38013166 0.23944956
000140 10 47 56 3d 67 2d 18 bf 56 60 22 bf 7a b9 91 3e
       0.052313864 -0.5944428 -0.63428247 0.2846182
000150 4b fc 82 3d 68 87 95 bd 82 54 36 bf 3d e3 0e bf
       0.06395777 -0.07301217 -0.712227 -0.5581549
000160 3c 69 8a 3e f7 68 a6 3e 6c ff 14 3e 72 e3 8f 3e
       0.27033412 0.32501957 0.1455056 0.28103215
000170 c9 82 ec 3e 41 0c 04 be 13 4b 25 3e f4 9e 4a 3e
       0.4619353 -0.128953 0.1614192 0.19787198
000180 f1 a1 0d 3e 74 76 88 3e 48 56 2e be fb 28 2c 3f
       0.13831307 0.26652873 -0.17025101 0.6725003
000190 47 e8 e0 be e3 f7 0e bf 75 f3 d6 be d2 f7 8a be
       -0.43927214 -0.55846995 -0.41982618 -0.27142197
0001a0 a6 ca d4 be e7 29 ca 3e 04 aa 5e be 00 bd 7f be
       -0.41560858 0.39485094 -0.21744543 -0.24974442
0001b0 50 ea 3f bd 3e eb aa 3e e0 c5 13 be 1d a4 13 bf
       -0.046854317 0.333826 -0.14430952 -0.5767229
0001c0 fe a9 e1 3e da bc 8c 3e 76 bc 97 3e 39 15 ef be
       0.44075006 0.27487832 0.29635972 -0.4669588
0001d0 fc 32 28 3e 61 af 0f bf cd 38 b7 bd bc 3a a6 3e
       0.16425699 -0.5612698 -0.08946381 0.32466686
0001e0 32 70 b1 3e 40 a6 f8 bc 86 ce 40 3f 42 88 b2 be
       0.3465591 -0.030352712 0.7531513 -0.3486958
0001f0 5c 7d 45 be 4f f7 a1 3c f0 26 e9 be eb f7 61 be
       -0.19286102 0.019771246 -0.4553752 -0.2206723

hidden_layer.weight f4 [64, 128]
000000 76 c6 0b 3d 3d 0c 07 3d 21 9e 8a bc 62 f5 81 bd
       0.034124814 0.032970656 -0.016921105 -0.06345631
000010 9f 90 bb bd 72 b6 33 bc 51 66 ad 3d 3e 7d 22 bd
       -0.09158444 -0.010968791 0.08466781 -0.03967022
000020 25 be 24 3d 51 0b dc bc fe f6 02 3d f4 03 57 bd
       0.0402204 -0.026860865 0.03197383 -0.052494004
000030 bd 0e 83 3d e0 a1 74 3c 60 46 be bd ec 6e ce bc
       0.063992955 0.014931172 -0.09290767 -0.025199376
000040 f0 52 42 bd fb 73 db 3c dc bf 3f bd bc 13 e3 bc
       -0.047442377 0.026788702 -0.04681383 -0.027719371
000050 33 ee 8b bd ad 21 a4 3d 9c 18 4a bd 63 a5 64 bd
       -0.06832542 0.08014236 -0.049339876 -0.055821788
000060 a1 32 81 bc 91 7e 1b bd 56 8c dd bc 08 b8 ac bd
       -0.015771212 -0.0379625 -0.027044456 -0.08433539
000070 10 2a cf 3c 64 ee 5c 3d a5 2a a1 bb ec d9 35 3d
       0.025288612 0.053938285 -0.0049184137 0.04439728
000080 a2 de de bc af bd 12 3d 61 11 bb bb b5 51 a2 bd
       -0.027205769 0.035825428 -0.005708859 -0.07925741
000090 98 6d 3e bd ad 39 9b bd b2 89 6c bd ed 78 96 3d
       -0.046491235 -0.0757936 -0.057748504 0.073472835
0000a0 46 bc b8 bd 77 62 5c bc 49 54 20 3d 58 eb 0f 3d
       -0.09020285 -0.01345121 0.03914288 0.03513655
0000b0 cb ca b1 3c e7 81 b2 3d 4f 39 7f bc 57 ac 31 bb
       0.021703145 0.08716183 -0.015577628 -0.002711078
0000c0 28 6c b8 bd 99 29 c1 3c a8 f7 49 bd 28 da 69 bc
       -0.09005004 0.023579406 -0.04930845 -0.014273204
0000d0 d9 f8 b1 3d 39 20 89 3d bf 3c ae 3d 3f 8d ae 3d
       0.08690042 0.06695599 0.0850768 0.08523034
0000e0 78 f2 36 bc 25 c0 4c bd db c8 a2 3d 9c 39 5d bd
       -0.0111662075 -0.04998793 0.079484664 -0.05401002
0000f0 4b 07 d1 bc a4 68 71 bb cc 3d 6e bc 32 d1 23 3d
       -0.025516173 -0.0036836052 -0.014541101 0.039994426
000100 43 9b 8d 3d e5 41 f3 bb d6 0c 2c 3d 3b 27 6e bd
       0.069143794 -0.0074236267 0.04200443 -0.05814288
000110 40 e2 e3 bc 56 f7 9c 3d 51 13 49 bd b8 ce 32 bc
       -0.027817845 0.07664363 -0.049090687 -0.010913543
000120 a6 3f a2 bd 1c 15 86 bc 4f 28 81 3d 32 bb 0c bb
       -0.07922296 -0.016367488 0.063065164 -0.0021473882
000130 8b 9d 8e bd 0c 62 e3 bc 24 f8 a7 bd 7c 5b 89 bc
       -0.06963643 -0.027756713 -0.08201626 -0.016767256
000140 b4 79 b7 3c e3 00 b2 bd 6b 49 0f bd 68 30 a9 bd
       0.0223969 -0.086915754 -0.034982126 -0.08261186
000150 84 86 a7 bc a9 8b 7f 3d 26 8b 16 3d 02 4b ca bc
       -0.020449884 0.06238905 0.036753796 -0.02469397
000160 64 5d 4f bd 3b 98 d7 bc e7 2f 99 bd 78 06 12 3c
       -0.050626174 -0.026317706 -0.0747984 0.008912675
000170 eb f7 57 bd f5 d4 9d 3d 2d ce 54 3d 6a 3e a3 3d
       -0.052726667 0.07706634 0.051954437 0.07970889
000180 d9 f8 15 3d 51 8b a5 3d 19 c6 2b bd 47 28 8e bd
       0.036614273 0.08083213 -0.041936968 -0.06941276
000190 ab ea 34 bd 50 cb 5c 3d 54 25 a1 bc d2 b5 3c 3d
       -0.04416911 0.05390483 -0.01967112 0.046071835
0001a0 7c 8b 3c 3d 22 6c 0b 3d ad 9b 07 3d 22 7c 27 3d
       0.04603146 0.03403867 0.03310745 0.040889867
0001b0 06 eb 27 3d 7d f0 59 bd 58 55 11 3c 8c e2 2e bc
       0.04099562 -0.053207863 0.008870445 -0.01067413
0001c0 11 80 41 bd 81 d9 fd 3c 15 bf a7 bd b4 2a 5e bc
       -0.047241274 0.030987503 -0.08190743 -0.013559986
0001d0 ec b6 06 3d f9 18 27 3d aa 29 0f 3d ce 6a 70 3d
       0.03288929 0.0407953 0.034951843 0.058695607
0001e0 40 54 7f bb f8 66 18 bd bc db fd bc 3c 3e 94 bd
       -0.003896013 -0.037207574 -0.030988567 -0.07238433
0001f0 40 03 b0 bc 61 04 0e 3d ca 12 94 bd 72 db 80 bd
       -0.021485925 0.034672145 -0.07230146 -0.06291856
000200 52 01 24 3d 71 48 e5 3c 48 b5 29 3e d9 8b b0 3d
       0.04004032 0.027988644 0.1657306 0.08620424
000210 1a d0 8c 3d 45 28 c6 bd a0 ea b3 3b a6 d8 8d 3d
       0.0687563 -0.096756496 0.005490616 0.06926088
000220 b7 ca 0c 3e 2b 30 91 bd 9a 85 b1 bd 07 95 06 bf
       0.13749205 -0.070892654 -0.086680606 -0.5257115
000230 96 7b 19 3d 4b 81 54 bd 2b 33 f8 3d 8c 5b b4 bd
       0.037471376 -0.051881116 0.121191345 -0.08806524
000240 06 28 0c bd 0a a2 c6 3d 48 12 92 bd 11 c0 9e 3d
       -0.034217857 0.09698875 -0.07132393 0.077514775
000250 4e 2b 9d bd 37 8f 20 3e a2 dc 69 be 4f 0c 23 3e
       -0.07674275 0.15679632 -0.22838071 0.15922664
000260 10 9f 23 3e 37 e4 9c 3d 43 5a 91 3d 00 53 31 ba
       0.15978646 0.07660716 0.07097294 -0.0006764382
000270 a0 d4 6f 3b 85 78 3b 3e 90 93 0d bc ac ef 58 3d
       0.003659524 0.18307693 -0.008641139 0.052962944
000280 cd 1e 2f be da f9 46 3e c1 b3 20 3e 82 b2 ef bd
       -0.17101593 0.19431248 0.1569357 -0.117039695
000290 64 69 02 3e 86 1e f3 3d ce 4a a7 bd 04 ba e0 3c
       0.12735516 0.11871056 -0.08168565 0.02743245
0002a0 6e 38 06 3e f6 0c 40 3b d1 05 30 3e ba 25 63 3d
       0.13107464 0.00293046 0.17189719 0.0554559
0002b0 3d 85 2a 3e b3 c2 91 3d f3 e7 4a 3e 54 da 6c bd
       0.16652389 0.07117214 0.19815044 -0.0578254
0002c0 12 fd 42 bd 1b e5 5a 3d ad 3a e4 3d e5 4d 08 3e
       -0.047604628 0.05344115 0.11144004 0.13310964
0002d0 23 68 b3 3d 17 fc ed bc 2f 1b a9 3d d2 94 0d bd
       0.08760097 -0.02905087 0.08257138 -0.034565754
0002e0 20 e9 52 3b 01 4e 83 3e c2 2e 5f 3d 48 63 0e be
       0.003218241 0.2564545 0.05448795 -0.1390506
0002f0 ab 40 7d bc ca d7 a4 3c 5b 61 fc 3d 51 d7 08 bd
       -0.015457313 0.020122427 0.123232566 -0.033408467
000300 ed 83 3c bd 56 2a 36 3e 9c eb 74 bd c2 b7 4b bd
       -0.04602425 0.17789587 -0.059795007 -0.049735792
000310 23 cf 24 bd 06 81 87 3e dc fc bc bc b2 65 f6 bd
       -0.040236603 0.26465625 -0.023069791 -0.120311156
000320 79 9f 27 be ec de dd bc f0 26 14 be 6b df 95 3c
       -0.16369428 -0.027083836 -0.14467978 0.01829501
000330 b6 af bd 3e c7 1d a2 bd 31 48 50 bd dc 75 f5 bb
       0.3704812 -0.07915836 -0.050850097 -0.0074908566
000340 81 19 36 bd 49 7d 7b be 79 99 6d be a3 4a ac bd
       -0.044457916 -0.24559511 -0.23203076 -0.08412673
000350 4a 0e 24 bd 95 3c 39 3e a1 3c 82 be 8b 95 ac bd
       -0.04005269 0.18089516 -0.2543688 -0.084269606
000360 e7 35 a8 3d 1b 87 a2 3d ff ef 1a bd e8 21 05 3d
       0.08213406 0.079359256 -0.037826534 0.03250304
000370 41 c4 3f 3c a9 29 3a be e1 65 88 bc 7f 38 82 3e
       0.011704505 -0.18179955 -0.016650142 0.25433728
000380 67 a1 99 3d 39 b9 c0 bc 30 78 a8 3b 16 f0 ac 3d
       0.07501488 -0.023525821 0.0051412806 0.0844423
000390 cc 05 e5 bd 30 96 19 be ac 9b 8d 3d 38 43 6a bd
       -0.11182746 -0.14998698 0.06914458 -0.05719301
0003a0 43 84 25 bd d8 54 ac 3d 50 36 90 bd 4c 4c ba bc
       -0.040409338 0.0841462 -0.07041609 -0.02274146
0003b0 1c 60 ab bc b4 73 a4 3d 0e 3e 78 3d a9 1c 9a be
       -0.020919852 0.08029881 0.060606055 -0.3009999
0003c0 88 8a fe 3c 42 59 f3 3d 34 31 0a 3d 69 de 9d bd
       0.031071916 0.11882259 0.03373833 -0.07708437
0003d0 90 14 28 bd da e1 36 bc 16 8b f7 3d a7 a8 ce 3d
       -0.041035235 -0.011162246 0.120870754 0.10090762
0003e0 89 88 34 3e 54 bf fb 3c 68 12 dd 3d 50 ce 0b 3c
       0.17630209 0.03073088 0.10794526 0.008533075
0003f0 fb 14 98 3d 85 3a 07 be 5c 83 49 3d ee fd 90 3d
       0.07425877 -0.13205917 0.04919754 0.07079683

hidden_layer.bias f4 [64]
000000 84 a1 78 bd a2 53 02 3e 5e 11 07 be 7e f8 a4 bd
       -0.06070091 0.12727216 -0.13190219 -0.080552086
000010 59 07 a0 be 84 1d bd bc 63 4e c6 bd 5d 7a 9e 3d
       -0.31255606 -0.023085363 -0.0968292 0.07738183
000020 47 b4 4b 3c 7c e8 f0 3c e9 bc 07 3e 98 70 a1 3d
       0.012433118 0.029407732 0.13255657 0.07882804
000030 5d 70 3c 3e 23 0f 1a 3e 07 ca f0 3d be aa 6a bb
       0.18402238 0.15044837 0.11757284 -0.0035807337
000040 14 f0 96 bc 89 89 01 3d b6 3e 19 be 7a 41 01 be
       -0.018425025 0.031625304 -0.14965329 -0.12622634
000050 0a 1b 16 bc f8 10 15 3d 06 09 2e 3d b8 32 87 bc
       -0.00916172 0.036393136 0.042489074 -0.016503677
000060 f9 55 6f 3d 20 e4 39 bd 58 e5 64 3e bc 1c 2c 3b
       0.0584316 -0.045383573 0.22353113 0.0026262244
000070 0b a5 3b bc ce 0b 69 3d 4a c0 b6 3a 65 58 b0 3d
       -0.0114529235 0.056896023 0.0013942805 0.0861061
000080 a1 de 97 3b f5 be 13 3e 28 4e 0f 3c 60 20 76 be
       0.0046346937 0.14428313 0.008746661 -0.24035788
000090 76 43 a1 be 04 85 c0 bc 00 9b ba 3a de 92 41 be
       -0.3149678 -0.023500927 0.0014236867 -0.18903682
0000a0 bd 0c 93 3e 00 c8 55 3c 99 bf 86 3d 17 88 2c 3d
       0.28720656 0.013048172 0.06579513 0.042121973
0000b0 0e 70 8d bd 69 3a 6b bd 84 5d dc 3c c4 b6 b6 bb
       -0.06906138 -0.05742875 0.02690006 -0.0055759866
0000c0 0a b3 4e bd a0 53 72 3e 20 3e 63 3c 55 64 90 bd
       -0.050463714 0.23664713 0.013869792 -0.07050387
0000d0 a0 97 0b 3d 23 98 2a bb bb 22 3f 3e c9 70 76 3b
       0.034080148 -0.0026030622 0.18665592 0.0037603846
0000e0 6f 8d 90 bd d9 96 44 bd b4 ed 8e 3c 16 69 ff 3d
       -0.07058226 -0.047995422 0.01744733 0.124712154
0000f0 fa ee 7d 3d bb 05 55 be 6f 70 3e 3b 26 89 06 3b
       0.061995484 -0.20802967 0.0029058715 0.0020528524

output_layer.weight f4 [3, 64]
000000 4f bd 1b 3d 7a 24 3f 3e 3e 83 3f be cc 6f ce 3d
       0.038022336 0.18666258 -0.18702409 0.10079917
000010 8e e5 40 be 94 4f 27 3d 89 be 25 be 14 c0 71 bd
       -0.18837568 0.040847376 -0.16185965 -0.05902107
000020 a2 92 30 be da 90 17 3e 8a 51 71 bd 36 de 00 3e
       -0.17243436 0.1480135 -0.058915652 0.12584767
000030 f6 ce 45 3e c1 67 01 3e e7 be 44 3e c7 60 40 be
       0.1931723 0.12637235 0.19213448 -0.18786918
000040 84 ae 20 3d fb 96 d4 3d b3 c8 f9 bc bd b3 2a be
       0.03922893 0.1038036 -0.030491209 -0.16670127
000050 d0 72 ba bd 98 c9 4e bd e8 a3 7b bd 70 91 c5 3d
       -0.0910393 -0.050485224 -0.06143561 0.096468806
000060 6d 82 6b bd 4d f1 05 3e 3b 20 c6 3d 90 14 3e be
       -0.05749743 0.1308033 0.09674116 -0.18562531
000070 4c 1d fe bd 02 27 e6 3d 79 3a fd 3c 70 42 1e bd
       -0.12407932 0.11237909 0.030911671 -0.03863758
000080 a3 59 ad 3d 07 70 23 3e 90 60 6a 3c 2b 5e fb 3c
       0.084643625 0.15960704 0.014305249 0.030684551
000090 b8 fc 6f 3c 20 2b 1a 3d 36 65 8a bd 33 c2 30 3d
       0.014647655 0.037638783 -0.06757586 0.043153953
0000a0 fb 35 eb bb 38 4f 71 bd 81 05 d9 bd 47 20 c4 bd
       -0.007178066 -0.05891344 -0.10596753 -0.09576469
0000b0 98 52 f0 3d de da 8b bd 04 69 db bd 31 99 6f 3e
       0.117345035 -0.06828855 -0.107133895 0.23398282
0000c0 97 7e 00 3e 1d 32 73 bd 54 74 62 3d ac 52 b9 3d
       0.1254829 -0.059373964 0.05528672 0.090489715
0000d0 3f fa e4 3d 5b 5e bd bd 64 8b 38 3e 4a ea e8 3d
       0.11180543 -0.092465125 0.18021923 0.11372812
0000e0 58 65 76 bd 17 27 48 be b8 c8 dd 3d f4 36 5d 3e
       -0.060155243 -0.19546162 0.108293 0.21602994
0000f0 de 43 a4 3d 13 4c 0d be cd f4 5a 3e b5 58 97 3d
       0.08020757 -0.13798551 0.21382447 0.073899664
000100 b6 84 bb 3d da 47 3d 3e 8c d3 44 bd c6 ec dd bd
       0.09156172 0.1848444 -0.04805331 -0.108361766
000110 ea 78 d2 be 1e 57 f0 3d ab b9 39 be 78 5e cb bd
       -0.41107875 0.11735366 -0.18137233 -0.09930128
000120 19 e9 f1 bd b9 10 ef bd e0 38 0d 3e 64 be 99 3d
       -0.11812038 -0.116731115 0.13791227 0.07507017
000130 cc 92 67 3e 6f 2a 7a 3d 6a 46 2a be a8 60 36 3d
       0.22614592 0.061075624 -0.16628423 0.044525772
000140 ae 52 f1 3d 57 00 8f 3d 75 4e 4d be 16 d1 c9 bc
       0.11783348 0.06982487 -0.2004946 -0.024635833
000150 31 63 a4 bd 80 3b aa 3b ae 45 84 3d 6c da d9 3d
       -0.08026732 0.0051950812 0.06458603 0.10637364
000160 1b 89 66 3d 7e 82 e7 bd 3b e9 d4 3c 53 05 62 3d
       0.056283098 -0.11304186 0.02599012 0.05518086
000170 69 56 c0 3d b2 fc ce 3d 7c 48 a6 3d b0 ee 7a bd
       0.093914814 0.101067916 0.08119294 -0.061262786
000180 5b de ac bc d8 dc 81 3d 5e e8 f5 bd 75 ca 1c be
       -0.021102121 0.06340951 -0.12007211 -0.15311606
000190 50 4b 2c be f0 8f c5 bc 9c 65 09 3d 1b 2a 82 be
       -0.16825604 -0.024116486 0.033544168 -0.2542275
0001a0 d2 5d 58 3d fa f4 a1 bd dc 6f 01 3e c9 ad 1d 3e
       0.05282385 -0.07908054 0.12640327 0.15398325
0001b0 38 1f da bd d2 a1 c4 bd b6 c3 d0 3d 43 37 d9 bd
       -0.10650486 -0.09601177 0.10193579 -0.106062435
0001c0 16 0c 69 be d5 b0 25 3e 6a 95 fe 3d 98 ac cc bc
       -0.22758517 0.16180737 0.12430842 -0.024984643
0001d0 75 3a c9 3d 61 bc 80 3e 4b c5 42 3e bc 2e 9e 3d
       0.09825603 0.25143722 0.19020574 0.077237576
0001e0 68 69 0b 3d bb 16 50 3e c0 52 41 3c 49 4d f6 3b
       0.03403607 0.20321171 0.011799514 0.0075165373
0001f0 e0 ea de bc 4c 66 a7 bd 3c c5 0d be 29 20 49 3d
       -0.027211607 -0.081738085 -0.1384477 0.049102936
000200 28 fa ae 3d 56 6e a5 bd 0b 94 43 3e b0 cf 9f bc
       0.08543807 -0.080776855 0.19099443 -0.019508213
000210 83 ba 4c 3e 20 70 45 3d 42 12 5b 3e d4 02 7e bd
       0.19993024 0.048202634 0.21393684 -0.062014416
000220 7e 48 63 3e f7 69 14 bc be 97 38 be 55 b5 6f be
       0.22195622 -0.009058467 -0.18026635 -0.23409016
000230 a3 ac 25 be 74 a4 29 be 52 f2 91 bc 14 3c 51 3e
       -0.16179137 -0.1656664 -0.017815743 0.20433074
000240 b0 0f 8f 3c a6 bc 1a be f5 75 1c 3e fa a1 61 3e
       0.017463535 -0.15111026 0.15279372 0.22034445
000250 f1 9d 41 3d 50 2e cf bc 5b 81 17 3e c8 4a 5c 3c
       0.047269765 -0.025290638 0.14795439 0.013445564
000260 0e aa 9e bd 55 46 9a 3c 49 1a 12 be e4 02 26 3e
       -0.07747279 0.018832365 -0.1426784 0.1621204
000270 07 63 61 3e 7e 24 b1 3d 5e 29 16 3c 50 8f b7 3c
       0.22010432 0.086495385 0.009165136 0.022407204
000280 c3 fd 4e be 7e 15 34 be b0 5f 9f bc c4 c8 1f 3e
       -0.2021399 -0.17586324 -0.019454807 0.1560393
000290 74 8d 6e 3e 88 a0 63 bd 48 ad ed 3d c8 ca 75 3e
       0.23296148 -0.055573016 0.116053164 0.24003136
0002a0 41 7d 54 be 38 fd 4f 3d 1d 34 3c 3e e0 54 d1 bd
       -0.20750906 0.050778598 0.18379255 -0.10221267
0002b0 80 38 b8 bb f7 8f 58 bd 5e 48 f5 3d 3e 8c 98 3d
       -0.0056219697 -0.05287167 0.119766936 0.07448624
0002c0 3d 4a 00 3d 12 01 85 bd 2a 10 9d 3d 80 b1 03 3d
       0.0313208 -0.06494345 0.07669099 0.0321517
0002d0 41 7d 00 be fa bf ec 3d b7 fa 89 bd 30 69 ed bd
       -0.1254778 0.11560054 -0.06737273 -0.115923285
0002e0 a8 da af bd fe eb 59 3e 4e 2c a1 3d 62 c6 4c be
       -0.08586627 0.2128143 0.078697786 -0.19997552
0002f0 24 50 31 bd 33 a1 4e 3d 51 cd 1c 3d 51 d2 e7 3d
       -0.04328932 0.0504467 0.038281742 0.113194115

output_layer.bias f4 [3]
000000 d9 b7 e7 3d 11 d3 91 3d 08 43 33 be
       0.11314363 0.07120336 -0.17506039
